best_model.pth (torch, 270791 bytes, 10 tensors)

wrapper.phi.0.weight f4 [128, 5]
-0.29133204 0.3669029 -0.03377438 -0.16770919 0.32881063 -0.24272493 0.07636501 -0.16993414
-0.06486303 0.17444713 0.0073553384 -0.14463463 -0.13264027 0.4866054 -0.3121403 0.32517695
-0.35401803 -0.23018801 -0.14052817 -0.11827369 0.42318088 0.0051329066 -0.10141752 -0.21590823
-0.072242714 -0.43395922 0.26016957 -0.031633172 -0.2593121 -0.40714687 -0.23865028 -0.18493444
-0.047710095 -0.07513607 0.26304844 0.3845755 0.3967517 0.3320769 0.22802201 -0.47630513
0.40743357 -0.3665876 0.11096353 0.45135623 0.15596728 0.35462016 0.3423375 0.35219708
-0.22355433 -0.37278756 -0.20807455 -0.11775646 0.23711476 -0.3931662 -0.2971229 0.1506445
-0.063274555 0.2644711 0.12430798 -0.33638132 -0.3691401 -0.04856547 -0.38355538 -0.20922227
-0.43184903 0.29544944 0.27361435 0.23745744 0.42801544 -0.3349578 -0.1231804 0.3959074
0.11215826 0.30639026 0.10467368 -0.16866599 0.39673084 0.22807367 -0.21124189 0.0016936286
0.33393466 0.19382367 -0.17223325 0.3163796 0.23675717 0.2725717 0.39302114 -0.1246271
-0.13816139 -0.40359452 -0.42300445 0.29737726 0.38410202 -0.41572925 0.3446822 -0.38286293
-0.39367878 0.08308543 -0.42683196 -0.10031723 0.23043504 0.063198 0.36356264 -0.16429622
-0.23765251 -0.24047291 -0.057587393 -0.2630182 0.2873948 -0.3103559 -0.014930448 0.039367117
0.4323096 -0.20567797 -0.41592225 0.12015977 0.42800692 -0.13032848 -0.10927586 0.12110582
-0.0077585615 0.17573689 -0.34209058 0.019652596 -0.04998361 0.41880503 0.42059904 -0.08070332
-0.17183754 0.20508663 -0.34891364 0.16452576 0.12622136 -0.2523635 -0.21730173 0.08819146
0.31747502 0.17369698 0.21317445 0.43217915 -0.13886182 -0.015908243 -0.3937849 0.37776557
0.21492574 0.2603066 0.2977078 0.07558761 0.20011324 -0.001920911 0.13232742 0.4334149
-0.27143496 0.36308396 -0.02489937 -0.030238511 -0.20223105 -0.019701386 -0.3701546 0.1985164
0.1577231 -0.19272116 -0.15403284 0.18088947 0.38942325 -0.3438542 -0.22507773 -0.009579692
-0.328639 0.20180885 -0.013420159 -0.014570189 -0.16120759 -0.20564334 0.15916751 0.19748826
-0.38682577 -0.12966979 -0.27314028 0.27977332 0.015879381 -0.3664995 0.087946504 0.43692163
-0.21752782 -0.12205154 0.07534967 0.1450257 0.4166717 -0.19659145 0.3605674 0.4133534
-0.4200373 0.37359133 0.041841667 -0.13674553 -0.01857066 0.31848854 0.19617312 -0.36640224
-0.38087267 0.41519925 0.29267067 0.27163684 0.3823378 0.04670077 -0.050389953 -0.035993
-0.09069169 -0.03222327 0.42697766 -0.36885473 -0.33780465 -0.33870926 0.07529721 0.13184124
-0.3283346 0.42873445 0.071535386 -0.20439343 0.43333632 0.042260926 -0.31931525 -0.44747514
0.36115038 0.06863804 -0.28263438 0.41604638 0.0059241913 0.41756377 -0.066585004 -0.3833869
-0.3917793 -0.1561667 0.47876188 -0.27826864 -0.32945016 -0.35710174 0.12584955 0.32473212
-0.27277753 -0.44105715 -0.09756214 0.40867525 -0.07484865 -0.028320203 0.34118953 -0.031635657
0.4290215 0.399194 -0.22804846 0.22033079 0.42860237 -0.08414821 -0.08087053 0.044843268
00000000: 7929 95be b2da bb3e 0157 0abd f5bb 2bbe
00000010: de59 a83e e28c 78be 4265 9c3d 3703 2ebe
00000020: e9d6 84bd 45a2 323e 0d05 f13b 1a1b 14be
00000030: dad2 07be 5824 f93e dad0 9fbe 987d a63e
00000040: da41 b5be 68b6 6bbe 9ee6 0fbe 7a39 f2bd
00000050: 2aab d83e f131 a83b fdb3 cfbd 0c17 5dbe
00000060: fdf3 93bd e72f debe f234 853e c991 01bd
00000070: 8ec4 84be 8e75 d0be bd60 74be 745f 3dbe
00000080: a96b 43bd f1e0 99bd 49ae 863e 14e7 c43e
00000090: 0a23 cb3e fc05 aa3e 9a7e 693e 44de f3be
000000a0: 229b d03e 5fb1 bbbe d940 e33d 2a18 e73e
000000b0: e3b5 1f3e c690 b53e dc46 af3e 2d53 b43e
000000c0: 6deb 64be 03de bebe 7f11 55be 4d2a f1bd
000000d0: 36ce 723e 154d c9be 7e20 98be 8d42 1a3e
000000e0: 1796 81bd c268 873e 2f95 fe3d 2c3a acbe
000000f0: eeff bcbe 96ec 46bd 5f61 c4be 5d3e 56be
00000100: 511b ddbe 2645 973e 2e17 8c3e 0b28 733e
00000110: d724 db3e 977f abbe 0146 fcbd 60b4 ca3e
00000120: 3bb3 e53d 2fdf 9c3e 285f d63d c7b6 2cbe
00000130: 4e20 cb3e 258c 693e cb4f 58be bffc dd3a
00000140: 7cf9 aa3e b679 463e ea5d 30be 82fc a13e
00000150: 7970 723e 858e 8b3e 113a c93e 7e3c ffbd
00000160: 2e7a 0dbe f1a3 cebe 0a94 d8be d541 983e
00000170: 05a9 c43e 77da d4be 2f7a b03e 9c06 c4be
00000180: 4490 c9be b228 aa3d b889 dabe 1f73 cdbd
00000190: 2af7 6b3e f46d 813d e224 ba3e 453d 28be
000001a0: 2e5b 73be 883e 76be c2e0 6bbd 52aa 86be
000001b0: 6925 933e f8e6 9ebe d69e 74bc 6a3f 213d
000001c0: af57 dd3e 3f9d 52be c3f3 d4be 5316 f63d
000001d0: b923 db3e d474 05be 06cc dfbd 5406 f83d
000001e0: 883b febb 5ff4 333e 7f26 afbe 7bfe a03c
000001f0: 9dbb 4cbd 9d6d d63e c258 d73e c847 a5bd
00000200: 2ef6 2fbe 3b02 523e cfa4 b2be 7179 283e
00000210: 2c40 013e ca35 81be 5884 5ebe b99d b43d
00000220: 168c a23e 9fdd 313e 674a 5a3e 9646 dd3e
00000230: cb31 0ebe 0152 82bc 2d9e c9be 7d6a c13e
00000240: 7e15 5c3e e846 853e 286d 983e adcd 9a3d
00000250: 7cea 4c3e 14c7 fbba d780 073e 8fe8 dd3e
00000260: 86f9 8abe 24e6 b93e c3f9 cbbc c1b6 f7bc
00000270: a815 4fbe cd64 a1bc e784 bdbe e247 4b3e
00000280: 2a82 213e b258 45be c9ba 1dbe 173b 393e
00000290: 7c62 c73e a80d b0be c77a 66be 24f4 1cbc
000002a0: 5f43 a8be fba6 4e3e 3ae0 5bbc cdb7 6ebc
000002b0: 9a13 25be 2b94 52be cffc 223e 5d3a 4a3e
000002c0: 070e c6be 28c8 04be 0bd9 8bbe 733e 8f3e
000002d0: 7a15 823c d3a5 bbbe 4c1d b43d 31b4 df3e
000002e0: 9dbf 5ebe 28f6 f9bd ee50 9a3d 9e81 143e
000002f0: fe55 d53e 454f 49be 4a9c b83e 0fa3 d33e
00000300: 210f d7be 5d47 bf3e 2b62 2b3d 0507 0cbe
00000310: 7f21 98bc ee10 a33e 9be1 483e 1399 bbbe
00000320: be01 c3be ff94 d43e eed8 953e fc13 8b3e
00000330: c8c1 c33e 4e49 3f3d b265 4ebd 656d 13bd
00000340: 91bc b9bd 8cfc 03bd d19c da3e 87da bcbe
00000350: bbf4 acbe 4d6b adbe 6c35 9a3d 6401 073e
00000360: 791b a8be 1583 db3e 2581 923d 834c 51be
00000370: 42de dd3e cb19 2d3d 4a7d a3be 761b e5be
00000380: b4e8 b83e 1a92 8c3d 74b5 90be 0804 d53e
00000390: b81f c23b ebca d53e b85d 88bd 4a4b c4be
000003a0: 4c97 c8be 2aea 1fbe 4720 f53e 3a79 8ebe
000003b0: b1ad a8be 0ad6 b6be b4de 003e 4a43 a63e
000003c0: 7fa9 8bbe 3ed2 e1be a9ce c7bd e23d d13e
000003d0: 404a 99bd c5ff e7bc 65b0 ae3e 6494 01bd
000003e0: b5a8 db3e 2863 cc3e 8985 69be 659e 613e
000003f0: c571 db3e e655 acbd 739f a5bd 93ad 373d

wrapper.phi.0.bias f4 [128]
-0.2091251 -0.3461436 -0.21304983 -0.20086084 0.098798625 0.28607923 0.44213584 0.038807172
0.20381433 0.20317228 0.10846893 0.39850363 -0.43464354 -0.048402257 -0.38889834 0.38260153
0.43197227 -0.12182154 -0.26132435 -0.1298754 -0.15855731 0.32936564 -0.06541665 0.127875
0.16848797 -0.17115335 0.4263403 -0.3080206 0.04734609 0.35104027 -0.20514677 0.19287784
-0.10267814 -0.21290462 -0.26181257 0.076373935 -0.27481237 0.100079745 -0.4201983 -0.11124522
-0.15879895 0.038074274 0.36982426 -0.12337405 -0.13142316 -0.11530764 0.33181643 -0.29862952
0.111040585 0.13113374 0.12466664 0.038153894 0.0830034 0.19118252 -0.38121942 0.3086552
0.37755498 0.30833218 -0.2990221 -0.07540596 -0.33118957 0.03346769 -0.24491338 -0.24007386
0.028003266 0.40029648 0.20219015 0.40667117 -0.32703778 0.050671495 0.13762927 0.106071725
0.14824905 0.017327374 0.35000867 0.04179859 -0.070033886 -0.39151347 0.24213104 -0.39408705
0.12257044 0.22656898 -0.25925383 -0.33885035 0.041916322 -0.12415558 -0.31289673 -0.06399566
0.18799661 0.00089176337 0.09935984 0.06511619 0.3519501 0.28473625 0.24936725 -0.3819315
-0.16158131 0.15716663 0.23905261 0.17883809 0.30441916 -0.26299423 0.24338342 -0.29057083
-0.17803843 -0.093652554 -0.40433714 -0.35986355 -0.3043191 0.39876544 0.41219172 0.06047689
0.11953231 -0.09949786 0.38936254 -0.035027035 0.43962267 -0.35150898 -0.30474576 -0.016745616
-0.42973724 0.37385622 -0.3111299 -0.23129101 0.32244653 -0.20385163 -0.22569552 0.10544023
00000000: e424 56be bc39 b1be bc29 5abe 77ae 4dbe
00000010: ef56 ca3d fa78 923e a15f e23e 45f4 1e3d
00000020: b4b4 503e 650c 503e f524 de3d ab08 cc3e
00000030: 9989 debe 7241 46bd af1d c7be 59e4 c33e
00000040: 782b dd3e 927d f9bd 4ecc 85be 0ffe 04be
00000050: d95c 22be 9da2 a83e 2af9 85bd aaf1 023e
00000060: 1c88 2c3e d342 2fbe 4749 da3e e0b4 9dbe
00000070: f9ed 413d 8dbb b33e ff11 52be c581 453e
00000080: eb48 d2bd ab03 5abe 4c0c 86be f069 9c3d
00000090: 35b4 8cbe 9cf6 cc3d 3b24 d7be 89d4 e3bd
000000a0: 319c 22be c5f3 1b3d 9b59 bd3e 89ab fcbd
000000b0: cb93 06be 6926 ecbd d8e3 a93e f8e5 98be
000000c0: 3f69 e33d ec47 063e 3951 ff3d 4247 1c3d
000000d0: b0fd a93d 5ac5 433e 312f c3be 0e08 9e3e
000000e0: e34e c13e b7dd 9d3e 6d19 99be 716e 9abd
000000f0: ae91 a9be 6b15 093d 93ca 7abe ecd5 75be
00000100: 1b67 e53c a9f3 cc3e ef0a 4f3e 3437 d03e
00000110: 7f71 a7be ea8c 4f3d b0ee 0c3e 223c d93d
00000120: 99ce 173e 23f2 8d3c 5634 b33e 0035 2b3d
00000130: ed6d 8fbd 7474 c8be 33f1 773e c7c5 c9be
00000140: 3606 fb3d b301 683e ebbc 84be cb7d adbe
00000150: 73b0 2b3d 4845 febd 0034 a0be 2810 83bd
00000160: 2f82 403e 3ac5 693a 2c7d cb3d a35b 853d
00000170: ce32 b43e f3c8 913e 215a 7f3e 878c c3be
00000180: 9275 25be 4af0 203e 35ca 743e 5521 373e
00000190: d4dc 9b3e 2ea7 86be 8139 793e b3c5 94be
000001a0: b54f 36be e9cc bfbd 4705 cfbe 0940 b8be
000001b0: b7cf 9bbe fc2a cc3e cb0a d33e 9eb6 773d
000001c0: 5bcd f43d 89c5 cbbd 875a c73e 8278 0fbd
000001d0: 3916 e13e fcf8 b3be a307 9cbe 1a2e 89bc
000001e0: 8506 dcbe 156a bf3e 6b4c 9fbe 8dd7 6cbe
000001f0: b617 a53e 7bbe 50be ba1c 67be 0cf1 d73d

wrapper.phi.2.weight f4 [128, 128]
-0.0118934745 0.068794906 0.004528932 -0.05752994 0.049260374 -0.06674838 0.04682274 0.02435647
-0.042209473 -0.026519144 0.08278417 -0.055176433 0.019184792 0.063692935 0.06365324 -0.01542779
0.02804586 0.03693406 -0.0033463028 0.0076188394 -0.042216957 -0.049728096 0.063773125 0.07378977
-0.06284736 0.052916594 0.0496162 -0.02045652 -0.030645655 0.05136045 0.021379633 0.07397353
-0.045582898 -0.08532882 -0.061449364 -0.07358261 -0.040028546 0.0005093172 0.045328863 -0.03899273
0.06395645 0.053909943 0.024322344 -0.0077040913 -0.059383504 0.012518811 -0.038840804 0.021291478
-0.05206223 -0.06751553 -0.010212924 -0.03088416 -0.061360482 0.057411827 0.03929336 -0.045608502
0.035574757 -0.021241903 -0.03481334 0.056826454 -0.03993447 0.055715732 0.02594594 -0.06901435
0.08136938 0.069469325 0.031151008 0.070036754 0.0762031 0.011610876 0.05461243 -0.04216007
-0.027666591 0.01624618 -0.005862906 -0.010326072 -0.07219582 0.021225667 -0.022491809 0.0283638
-0.008902409 0.02476278 -0.06897099 -0.010731319 0.0533804 0.06756184 -0.03399602 0.010116706
-0.024162047 0.034404147 -0.028568495 -0.0786343 0.0453881 0.07028346 0.02816639 0.005277454
-0.054498248 -0.07259548 0.028961223 0.016932081 0.035018977 0.051448792 -0.028360697 -0.07469418
0.0042076707 -0.010935101 -0.0074710115 -0.056168526 -0.07457793 -0.07945713 0.045498718 -0.0059932023
-0.010593156 0.086714536 -0.061895687 -0.0706415 0.05789824 0.078165956 -0.034989964 0.06418601
-0.07234946 0.05578498 -0.017068239 -0.025985567 -0.0012093802 -0.034258157 0.050522238 -0.039515622
-0.08473132 -0.07661401 -0.08048181 -0.040288012 0.08684838 0.06376904 -0.035340533 -0.016561987
0.04314387 0.02623067 0.04434807 0.06728695 -0.073980436 0.07269923 -0.058823753 0.08583653
-0.042069066 0.04197834 -0.011438766 0.043875873 0.08296383 0.029492429 -0.054358304 0.07978626
-0.04703221 -0.051373243 -0.06449051 -0.08874052 -0.0013878695 0.03020331 0.030926302 0.040211406
0.028518718 0.04465532 0.009015349 -0.031269312 0.044399593 -0.069196455 -0.037327014 0.07499696
-0.09103985 -0.038006164 -0.07887057 0.054056834 -0.0028353666 0.07327053 -0.04769003 0.022621494
0.07904142 0.046999604 -0.026146347 -0.05630563 -0.04243681 0.0683427 -0.051855586 -0.08067259
0.07688148 -0.048666324 -0.010151758 -0.033508904 0.0612776 -0.041230608 0.066447474 -0.012101909
0.037390865 -0.064403474 -0.001473282 0.046401545 -0.08768614 -0.058810078 0.057647444 -0.07713912
0.06455156 0.054235786 -0.015208293 -0.08425025 -0.038507745 0.084213965 0.051999114 0.009549432
0.060521662 0.08936691 0.013590541 -0.04097886 0.004057914 -0.017432764 -0.08073719 0.022378458
-0.06572307 -0.08112378 -0.07252791 0.033516686 0.031652078 -0.0181293 -0.009469632 -0.08733398
-0.0037991346 0.012826268 0.02589807 -0.08202968 -0.071042046 0.08447905 0.01776164 -0.00065666815
0.05868869 0.027647512 0.0051960875 0.016256742 -0.02883033 0.07356533 -0.043190043 -0.041119266
-0.012530751 0.070955336 0.06654438 -0.03500209 -0.0048040804 0.024182614 0.078216754 -0.033265777
0.07512559 0.08033485 -0.013028775 -0.031177469 -0.075835146 -0.08862345 -0.02204231 0.021435443
00000000: d9dc 42bc 58e4 8c3d 6f67 943b 84a4 6bbd
00000010: 3fc5 493d 60b3 88bd 34c9 3f3d 3887 c73c
00000020: d7e3 2cbd ad3e d9bc bf8a a93d af00 62bd
00000030: 6d29 9d3c 7171 823d a15c 823d d7c4 7cbc
00000040: 6ec0 e53c 2b48 173d a54d 5bbb 75a7 f93b
00000050: b0eb 2cbd b0af 4bbd 7c9b 823d 171f 973d
00000060: 1eb6 80bd 12bf 583d 5b3a 4b3d 6f94 a7bc
00000070: 990c fbbc 565f 523d 5724 af3c 6f7f 973d
00000080: 22b5 3abd e0c0 aebd 54b2 7bbd 7bb2 96bd
00000090: f9f4 23bd b383 053a c2aa 393d d7b6 1fbd
000000a0: 99fb 823d acd0 5c3d a73f c73c 9a72 fcbb
000000b0: 1e3c 73bd b31b 4d3c 8917 1fbd 776b ae3c
000000c0: 343f 55bd 9545 8abd 1c54 27bc c700 fdbc
000000d0: 2155 7bbd aa28 6b3d 13f2 203d fbcf 3abd
000000e0: d6b6 113d 8003 aebc 6f98 0ebd dbc2 683d
000000f0: 5492 23bd 2e36 643d 948c d43c 6557 8dbd
00000100: fda4 a63d ef45 8e3d 6630 ff3c 6e6f 8f3d
00000110: 5f10 9c3d 8b3b 3e3c 49b1 5f3d 0ab0 2cbd
00000120: 0ca5 e2bc b516 853c 9f1d c0bb af2e 29bc
00000130: 67db 93bd 73e1 ad3c be40 b8bc 335b e83c
00000140: 69db 11bc 50db ca3c aa40 8dbd 6ad2 2fbc
00000150: 68a5 5a3d dd5d 8a3d 693f 0bbd 8ac0 253c
00000160: 7cef c5bc 5deb 0c3d 7a08 eabc 050b a1bd
00000170: dfe8 393d c6f0 8f3d 33bd e63c 7eee ac3b
00000180: 8e39 5fbd f0ac 94bd 1640 ed3c 26b5 8a3c
00000190: 0f70 0f3d f8bb 523d b154 e8bc 43f9 98bd
000001a0: 80e0 893b 2329 33bc 63cf f4bb f810 66bd
000001b0: 50bc 98bd 6bba a2bd dd5c 3a3d a062 c4bb
000001c0: eb8e 2dbc 6497 b13d 5586 7dbd 7eac 90bd
000001d0: b426 6d3d 7915 a03d a351 0fbd f473 833d
000001e0: f42b 94bd cb7e 643d b1d2 8bbc afdf d4bc
000001f0: 1184 9eba 4852 0cbd 68f0 4e3d 22db 21bd
00000200: 9d87 adbd cee7 9cbd a6d3 a4bd 0b05 25bd
00000210: 90dd b13d 5899 823d 3cc1 10bd 01ad 87bc
00000220: a0b7 303d b4e1 d63c 52a6 353d becd 893d
00000230: 0e83 97bd 55e3 943d 2df1 70bd 10cb af3d
00000240: 9d50 2cbd 7bf1 2b3d a969 3bbc 30b7 333d
00000250: f1e8 a93d 1b9a f13c d0a6 5ebd fb66 a33d
00000260: d9a4 40bd c06c 52bd 9a13 84bd 97bd b5bd
00000270: 2ce9 b5ba ef6c f73c 2859 fd3c b7b4 243d
00000280: 16a0 e93c 7fe8 363d 1db5 133c 4014 00bd
00000290: 59dc 353d dfb6 8dbd 36e4 18bd 0298 993d
000002a0: 1a73 babd 5aac 1bbd e586 a1bd b36a 5d3d
000002b0: 8fd1 39bb dc0e 963d 9f56 43bd b650 b93c
000002c0: 78e0 a13d a882 403d dd30 d6bc bba0 66bd
000002d0: 38d2 2dbd 42f7 8b3d 8666 54bd ac37 a5bd
000002e0: 0a74 9d3d 5756 47bd 8f53 26bc a240 09bd
000002f0: 38fe 7a3d 6de1 28bd 9d15 883d 1647 46bc
00000300: 2a27 193d f8e5 83bd 241b c1ba 8c0f 3e3d
00000310: ca94 b3bd d6e2 70bd ba1f 6c3d 1dfb 9dbd
00000320: 9c33 843d 5826 5e3d 342c 79bc 658b acbd
00000330: 4cba 1dbd 5f78 ac3d 06fd 543d 3975 1c3c
00000340: 90e5 773d 0006 b73d dcaa 5e3c 73d9 27bd
00000350: 40f8 843b 28cf 8ebc 8a59 a5bd 0753 b73c
00000360: d199 86bd 3924 a6bd 8389 94bd cb48 093d
00000370: 9ca5 013d e683 94bc 8426 1bbc 28dc b2bd
00000380: e7fa 78bb 4425 523c 3028 d43c 2dff a7bd
00000390: 7e7e 91bd 5a03 ad3d dc80 913c 4124 2cba
000003a0: 8d63 703d 097d e23c f143 aa3b dc2c 853c
000003b0: 962d ecbc 6ba9 963d 0be8 30bd ad6c 28bd
000003c0: c74d 4dbc 0851 913d 6b48 883d 5a5e 0fbd
000003d0: 8c6b 9dbb 9e1a c63c 1b30 a03d b241 08bd
000003e0: 72db 993d 9986 a43d a576 55bc e467 ffbc
000003f0: 754f 9bbd 3680 b5bd 1392 b4bc 6299 af3c

wrapper.phi.2.bias f4 [128]
-0.053514633 -0.024398362 -0.0050857808 -0.07520675 0.04420325 0.087610714 -0.05272292 -0.023688013
0.06426361 -0.030602409 0.0401167 -0.014673874 0.01776185 -0.04264264 0.048469257 -0.020289052
0.0370295 -0.04181811 -0.01985151 -0.012794146 0.07483203 0.038664136 -0.024912804 -0.028305752
0.003134595 0.032723058 -0.06125935 -0.073006265 0.010979938 -0.07627556 -0.061882682 0.03487168
-0.0017822095 0.019469243 0.040243804 -0.0001413288 0.022224175 -0.007274765 -0.042079125 -0.04138452
0.05288114 0.07431974 0.057531916 -0.026689816 0.06426458 -0.065132655 -0.006274047 0.05053574
0.0072535463 0.0067848484 -0.0067701098 -0.08609992 0.021196786 -0.07898078 0.048209053 -0.041502327
-0.009066945 -0.082492486 0.008563601 0.0879798 -0.06719485 -0.08078701 -0.0148308985 0.011905419
-0.08055033 0.024318533 0.08334248 -0.012108821 -0.03469782 0.012683334 -0.060153846 0.06755739
-0.056568366 -0.057285808 0.04672126 0.057747085 0.082238436 0.0485103 0.07285031 0.08216297
0.028779099 -0.04203842 0.02850214 -0.032309398 -0.08640001 -0.01701449 0.034753274 -0.0045829923
-0.083314046 -0.017889446 0.03920866 0.00976924 -0.06806525 -0.047748916 -0.051953796 0.05277459
-0.04668371 0.079726815 0.06319667 0.016801255 -0.07553348 -0.080883496 -0.035894297 -0.05288567
0.040201303 0.05345429 0.07321047 -0.0024937086 -0.026840268 -0.08548011 -0.07448048 0.045740385
0.06389119 0.07653065 -0.08202281 -0.08491388 0.07220966 0.01542054 0.03059662 0.03767699
0.059703864 -0.027435286 -0.080580525 0.012716317 0.030775363 0.05653094 -0.050152075 -0.003912398
00000000: 2932 5bbd 13df c7bc 9fa6 a6bb ff05 9abd
00000010: 780e 353d 3f6d b33d fdf3 57bd 5d0d c2bc
00000020: a49c 833d e7b1 fabc 6951 243d b06a 70bc
00000030: 4d81 913c 0daa 2ebd b387 463d 3a35 a6bc
00000040: 3fac 173d 7749 2bbd a29f a2bc 8a9e 51bc
00000050: 8941 993d 495e 1e3d f015 ccbc 77e1 e7bc
00000060: c76d 4d3b 9d08 063d 16eb 7abd 4f84 95bd
00000070: 33e5 333c 5c36 9cbd b278 7dbd 9bd5 0e3d
00000080: 0799 e9ba f67d 9f3c b0d6 243d a931 14b9
00000090: 790f b63c 2761 eebb 295b 2cbd d082 29bd
000000a0: e599 583d f334 983d 96a6 6b3d 9aa4 dabc
000000b0: 269d 833d 4564 85bd 8596 cdbb 90fe 4e3d
000000c0: 28af ed3b 6f53 de3b ccd7 ddbb 2855 b0bd
000000d0: e2a4 ad3c adc0 a1bd db76 453d 58fe 29bd
000000e0: 868d 14bc d2f1 a8bd 594e 0c3c c12e b43d
000000f0: 749d 89bd a973 a5bd 4cfd 72bc f20e 433c
00000100: 92f7 a4bd a937 c73c 76af aa3d 1464 46bc
00000110: 4d1f 0ebd c2cd 4f3c e163 76bd 875b 8a3d
00000120: 3bb4 67bd 86a4 6abd cb5e 3f3d 3588 6c3d
00000130: a06c a83d bdb2 463d 8b32 953d 0f45 a83d
00000140: 25c2 eb3c 7a30 2cbd 527d e93c dc56 04bd
00000150: 7df2 b0bd f961 8bbc 7359 0e3d ed2c 96bb
00000160: 8ea0 aabd e38c 92bc 4399 203d 2a0f 203c
00000170: cb65 8bbd 5e94 43bd 81cd 54bd 2b2a 583d
00000180: 6b37 3fbd d047 a33d 416d 813d c9a2 893c
00000190: 4cb1 9abd 3fa6 a5bd e605 13bd a59e 58bd
000001a0: 1faa 243d e3f2 5a3d 5fef 953d 7d6d 23bb
000001b0: 1fe0 dbbc 3210 afbd 3989 98bd 455a 3b3d
000001c0: 62d9 823d 1abc 9c3d 93fb a7bd 54e7 adbd
000001d0: a9e2 933d 6fa6 7c3c c3a5 fa3c 3053 1a3d
000001e0: 0a8c 743d f7bf e0bc 6707 a5bd 1958 503c
000001f0: 9d1c fc3c fd8c 673d 436c 4dbd 9333 80bb

wrapper.rho.0.weight f4 [128, 256]
-0.03473923 0.020442277 -0.059131905 -0.032535765 0.03718382 -0.018593436 0.02236726 0.0028765078
0.00806786 -0.011626119 -0.013547982 0.04423884 0.016177217 -0.04900266 0.048177194 -0.00063773355
0.033816736 0.04887682 0.008462824 0.013442992 0.026291337 -0.036216997 -0.0064538913 0.049428195
0.057803255 0.04324471 -0.025471887 0.058053914 -0.054387465 -0.02238517 0.04744576 0.029893212
-0.037825976 -0.055230543 -0.030661644 0.04613602 -0.0130350245 0.017367722 -0.012160626 0.05547201
0.023326917 -0.056847036 -0.015577268 0.061563782 0.028807636 -0.030291019 -0.014961017 -0.046092506
0.06082137 0.049302403 -0.052220814 0.037833545 -0.04095128 -0.037383255 -0.044614617 -0.029276662
-0.021536069 0.034921534 0.04864679 0.048967157 -0.02775632 -0.031583708 -0.023656737 -0.009624097
-0.025014669 -0.014541122 0.04386903 0.045055397 0.007147028 -0.049402572 0.056670833 -0.005696423
-0.03870134 -0.050367616 -0.008445641 -0.01965442 -0.034975786 -0.010444704 -0.020579256 0.009640392
-0.04209152 0.020408802 -0.030799042 0.04404422 -0.039073844 -0.0024072225 -0.034305967 -0.047069166
0.053272776 0.0010959521 0.03680897 0.05456083 -0.031568494 0.03148883 -0.004240016 0.031345606
0.009453919 0.04324963 -0.0047414117 0.028304406 0.056396704 0.028509643 0.019116888 0.025496174
0.022113971 -0.038467176 -0.026986433 0.06081583 0.048049584 -0.06536554 0.059470795 0.010961435
-0.0402433 -0.04215791 -0.026211808 -0.027899716 0.036611516 0.045107946 0.060980666 -0.03316512
0.05658597 0.024567492 0.05679272 -0.056014415 0.05131093 0.039076217 -0.004260042 0.02965862
-0.03177081 0.013036782 -0.056791518 0.0007171252 0.048960824 -0.01641824 -0.016308669 0.038448237
0.046213713 0.0440825 0.018299542 -0.017022913 -0.04942217 0.0027085252 0.06336302 -0.05876467
0.015426585 0.010700781 0.0062198727 0.04964722 0.014448344 0.041002076 -0.048057508 0.003853952
-0.005190233 -0.021363633 -0.018131718 -0.061358154 0.015230964 -0.034494024 0.051742792 0.049175374
0.0016950906 0.05247993 0.025045706 -0.023853064 -0.027626026 -0.046071276 -0.030229714 -0.0089233145
-0.0151679 -0.010143032 -0.011229867 0.007525331 0.032781962 0.01674696 0.059581857 0.011085016
0.033350408 -0.020897241 -0.014182126 -0.05802873 -0.040708754 0.054121878 0.023686146 -0.064062245
-0.00031671103 -0.047425717 -0.050617896 -0.006750341 0.029236538 -0.036419254 0.05288285 -0.04014158
-0.026174719 0.023629272 -0.048115257 -0.0026980906 -0.025658935 0.030095952 -0.009423219 -0.030266855
-0.008343928 -0.03535362 0.048718225 -0.0024565028 0.0025286248 0.0400569 0.015895253 0.013113169
-0.012227333 0.010830995 -0.013752452 0.058715038 0.056096666 -0.05268493 -0.00021077428 -0.015953854
-0.00082011794 0.045295 -0.034542367 -0.035694387 0.00868021 -0.050568137 -0.0031869134 0.044618256
-0.053569328 0.012588975 0.053288605 -0.001795963 0.0008997478 -0.012707489 -0.01732021 0.039120585
-0.01840544 -0.004356373 0.063134566 -0.058995724 0.014965467 -0.021054823 0.044496708 0.05843487
-0.013733755 -0.0034739107 0.011043912 -0.015150479 -0.0142553365 0.04355518 0.060919072 -0.00935814
0.04612733 0.05325669 -0.016783377 -0.041581795 0.017244436 -0.04794412 0.026191138 -0.006652013
00000000: b94a 0ebd 9076 a73c 4c34 72bd 3944 05bd
00000010: 104e 183d 4351 98bc 8b3b b73c cb83 3c3b
00000020: 0f2f 043c 7a7b 3ebc 5bf8 5dbc c933 353d
00000030: 1586 843c 03b7 48bd 7355 453d 932d 27ba
00000040: 6b83 0a3d 0f33 483d a8a7 0a3c ff3f 5c3c
00000050: ee60 d73c 4658 14bd 2a7b d3bb 3875 4a3d
00000060: 1bc3 6c3d 5d21 313d 6baa d0bc f1c9 6d3d
00000070: 64c5 5ebd 1b61 b7bc 7c56 423d 9ce2 f43c
00000080: 69ef 1abd 6c39 62bd 212e fbbc 20f9 3c3d
00000090: db90 55bc c146 8e3c 5d3d 47bc 9e36 633d
000000a0: 1718 bf3c 70d8 68bd cc37 7fbc 4e2a 7c3d
000000b0: fefd eb3c df24 f8bc 0e1f 75bc 7fcb 3cbd
000000c0: d41f 793d 51f1 493d 7ee5 55bd 59f7 1a3d
000000d0: 88bc 27bd 2f1f 19bd d1bd 36bd 9cd5 efbc
000000e0: 696c b0bc e209 0f3d db41 473d c991 483d
000000f0: 3961 e3bc eb5d 01bd c6cb c1bc 63ae 1dbc
00000100: 90eb ccbc e33d 6ebc 03b0 333d 028c 383d
00000110: 9e31 ea3b 5a5a 4abd ad1f 683d 0fa9 babb
00000120: 4c85 1ebd 464e 4ebd 965f 0abc 4e02 a1bc
00000130: c542 0fbd 4420 2bbc d495 a8bc bcf2 1d3c
00000140: 2868 2cbd 5c30 a73c 464e fcbc b667 343d
00000150: e50b 20bd 7ec2 1dbb 6a84 0cbd 99cb 40bd
00000160: 8e34 5a3d 0da6 8f3a 01c5 163d 2d7b 5f3d
00000170: f74d 01bd 6efa 003d d5ef 8abb 4064 003d
00000180: 9ce4 1a3c 8626 313d d85d 9bbb a4de e73c
00000190: 3b00 673d 0e8d e93c 059b 9c3c 5add d03c
000001a0: 5c28 b53c c28f 1dbd a712 ddbc 051a 793d
000001b0: a4cf 443d 5ede 85bd a697 733d 9797 333c
000001c0: 29d6 24bd c6ad 2cbd 25ba d6bc f28d e4bc
000001d0: f5f5 153d 1cc3 383d ddc6 793d 26d8 07bd
000001e0: b1c6 673d c441 c93c 7c9f 683d 5f6f 65bd
000001f0: 692b 523d 620e 203d d397 8bbb a2f6 f23c
00000200: 1c22 02bd 3a98 553c 399e 68bd 75fd 3b3a
00000210: 258b 483d 8b7f 86bc c299 85bc e67b 1d3d
00000220: 974a 3d3d da8f 343d ece8 953c a373 8bbc
00000230: e76e 4abd 8381 313b 79c4 813d 39b3 70bd
00000240: cabf 7c3c 5452 2f3c 13d0 cb3b e25a 4b3d
00000250: bfb8 6c3c cbf1 273d f3d7 44bd 9692 7c3b
00000260: d412 aabb c902 afbc f888 94bc b052 7bbd
00000270: 4b8b 793c 9b49 0dbd 40f0 533d 1e6c 493d
00000280: cd2d de3a 32f5 563d a72c cd3c 8067 c3bc
00000290: fa4f e2bc 3cb5 3cbd 4ea4 f7bc 1833 12bc
000002a0: c982 78bc f62e 26bc 7afd 37bc 0d97 f63b
000002b0: 6146 063d ec30 893c 1b0c 743d ed9d 353c
000002c0: 709a 083d b130 abbc 265c 68bc 89af 6dbd
000002d0: 39be 26bd e7ae 5d3d 7309 c23c 1133 83bd
000002e0: 3c0c a6b9 7841 42bd b654 4fbd f731 ddbb
000002f0: 7781 ef3c 5b2c 15bd b09b 583d 7f6b 24bd
00000300: 5d6c d6bc 2d92 c13c 8114 45bd 73d2 30bb
00000310: b032 d2bc c98b f63c d863 1abc 32f2 f7bc
00000320: f8b4 08bc f5ce 10bd c38c 473d 47fd 20bb
00000330: 49b7 253b b412 243d c336 823c 9ed8 563c
00000340: 2755 48bc 7c74 313c f751 61bc 2e7f 703d
00000350: 9ec5 653d 27cc 57bd 4a03 5db9 a8b1 82bc
00000360: 2ffd 56ba 4087 393d 4c7c 0dbd 4734 12bd
00000370: 7137 0e3c 8920 4fbd 89db 50bb a2c1 363d
00000380: 836b 5bbd fd41 4e3c 2745 5a3d 8566 ebba
00000390: 0edd 6b3a 1233 50bc 1de3 8dbc e83c 203d
000003a0: 01c7 96bc e8bf 8ebb b24c 813d 80a5 71bd
000003b0: b831 753c 2a7b acbc 2e42 363d 6759 6f3d
000003c0: 8b03 61bc 8daa 63bb 86f1 343c b739 78bc
000003d0: 378f 69bc eb66 323d 4786 793d e252 19bc
000003e0: 03f0 3c3d b023 5a3d 4b7d 89bc ac51 2abd
000003f0: 3444 8d3c 0e61 44bd cc8e d63c 21f9 d9bb

wrapper.rho.0.bias f4 [128]
-0.038917642 0.011844775 -0.032735974 0.020161144 -0.052045546 -0.0040542223 -0.05706953 -0.04195455
-0.011207126 0.013898416 -0.01239422 -0.028114034 -0.05182042 -0.021691456 0.042546798 -0.045042217
-0.041910037 0.021562701 -0.01786529 -0.037490968 0.019290926 -0.006002172 -0.06256601 0.033644557
0.04397641 0.020545196 0.0488793 -0.011662138 0.013627328 0.024259526 -0.00952589 0.04453843
0.052971166 0.026127063 0.010092402 -0.06063662 0.048113573 -0.027981803 -0.022652507 0.02962563
-0.038597815 -0.05115212 0.034995396 0.03249408 -0.010281395 0.058525115 0.0032754752 0.016549157
-0.0055630547 0.047303732 -0.008323162 -0.013267421 0.020300835 0.04329214 0.023367897 -0.01740284
0.037925337 0.05502396 0.048703503 -0.027875258 0.03974066 -0.038106605 0.03288471 -0.05457393
-0.008745673 -0.0141802775 -0.03501687 -0.043916572 -0.04801001 -0.010818689 -0.010330836 0.0057115247
-0.041095912 -0.032121856 -0.028330667 0.04517423 0.030072568 -0.056960307 0.024873585 0.013148008
-0.02374313 -0.0013120051 -0.03305544 -0.000659719 0.057691135 -0.056426704 0.029985562 -0.04574127
-0.032804165 -0.009468433 0.0039385837 0.008435532 0.062378667 0.03063301 -0.043078367 0.041741915
0.03541802 0.01341928 -0.017323779 0.0072440696 0.040672753 -0.006386973 -0.029869994 -0.05229888
-0.008874165 -0.0040048966 0.060307547 -0.043998912 0.034211453 -0.05129676 -0.032039206 -0.007371454
0.05535379 -0.023574842 0.052861143 0.012674746 0.043177515 -0.01381452 -0.0014394223 -0.04435936
0.029419154 -0.055901848 -0.03705753 0.007566853 -0.011951795 0.00650693 0.027542373 0.0061599948
00000000: 1b68 1fbd 9610 423c 2816 06bd fc28 a53c
00000010: b62d 55bd 48d9 84bb bdc1 69bd 89d8 2bbd
00000020: 189e 37bc 2fb6 633c 2011 4bbc 674f e6bc
00000030: a641 54bd 48b2 b1bc 8d45 2e3d 307e 38bd
00000040: dca9 2bbd 43a4 b03c 3b5a 92bc 2190 19bd
00000050: 0108 9e3c dead c4bb 9c22 80bd e0ce 093d
00000060: 9c20 343d 664e a83c a935 483d 8d12 3fbc
00000070: 2845 5f3c eabb c63c 7b12 1cbc ee6d 363d
00000080: 4bf8 583d 6c08 d63c 9a5a 253c 1b5e 78bd
00000090: bd12 453d 183a e5bc c091 b9bc 73b1 f23c
000000a0: be18 1ebd e384 51bd 5557 0f3d 8318 053d
000000b0: 4c73 28bc 08b8 6f3d 5ba9 563b 1992 873c
000000c0: 494a b6bb 8fc1 413d df5d 08bc 995f 59bc
000000d0: f04d a63c 1953 313d 086e bf3c 6790 8ebc
000000e0: 9957 1b3d ce60 613d 537d 473d a75a e4bc
000000f0: 1ac7 223d ac15 1cbd 1eb2 063d ea88 5fbd
00000100: 034a 0fbc 6554 68bc d96d 0fbd dde1 33bd
00000110: 25a6 44bd df40 31bc ab42 29bc be27 bb3b
00000120: 3054 28bd 3592 03bd b715 e8bc 9d08 393d
00000130: bf5a f63c 364f 69bd b0c3 cb3c be6a 573c
00000140: f480 c2bc 96f7 abba 2465 07bd fef0 2cba
00000150: 8a4d 6c3d b01f 67bd 48a4 f53c 335b 3bbd
00000160: a95d 06bd 7d21 1bbc 3c0f 813b 3035 0a3c
00000170: c680 7f3d 14f2 fa3c f172 30bd 92f9 2a3d
00000180: 7c12 113d 8adc 5b3c 99ea 8dbc a95f ed3b
00000190: 7998 263d d049 d1bb ebb1 f4bc 5a37 56bd
000001a0: f264 11bc 823b 83bb 0c05 773d 3438 34bd
000001b0: 4f21 0c3d 8d1c 52bd 8b3b 03bd 3d8c f1bb
000001c0: a8ba 623d 0720 c1bc ed84 583d bda9 4f3c
000001d0: e8da 303d 4c56 62bc ffaa bcba 29b2 35bd
000001e0: 7000 f13c 56f9 64bd a3c9 17bd 5df3 f73b
000001f0: 76d1 43bc 1638 d53b 8ba0 e13c c8d9 c93b

wrapper.rho.2.weight f4 [128, 128]
0.043657493 0.057450928 0.07492652 -0.06542651 -0.0397488 0.04327528 0.0013526411 -0.08270364
0.059178554 0.060914777 -0.08077851 -0.044542946 0.031857 0.0273323 -0.04076632 0.08559835
-0.03069155 -0.027808966 0.054751113 0.010828514 0.025882404 0.02436111 -0.022042105 -0.082248576
0.017673945 -0.05656473 -0.058938786 -0.07237647 0.07676364 -0.056880195 -0.03297038 0.05097222
0.052399524 -0.044444244 0.049927216 0.0692013 0.011913136 -0.044036068 -0.088334754 0.060671773
-0.08456782 0.022904407 0.011067642 -0.036140278 -0.077997945 -0.0803966 0.036784135 -0.012124952
0.07869877 -0.022551458 -0.07181016 -0.07432552 -0.062077884 -0.057770193 0.016914794 -0.020028364
-0.035614114 0.07583259 0.057007812 0.017125966 -0.088089906 0.0050425185 0.051626045 0.0825898
0.047807157 -0.05116171 -0.03048565 0.060506884 0.069021724 0.09172145 0.014853157 -0.058995806
0.044152886 -0.06401426 -0.030877218 0.05446237 -0.0501216 -0.067538865 -0.013337038 0.05081608
-0.0395795 0.028619092 -0.02553139 0.019970644 -0.061547313 0.08893367 -0.06900252 -0.037222825
0.027695255 0.0062140855 0.012154963 -0.0549718 -0.07419042 0.04697212 0.020137781 0.04484495
0.017599493 -0.07757106 -0.078983136 0.0668743 0.07395499 0.038166437 0.07719902 0.03039097
-0.014097085 -0.008902052 0.008129436 0.053724356 -0.0781428 0.07100874 0.03153942 -0.08556065
-0.06739389 0.010013369 -0.043490306 -0.072120905 0.008568015 -0.051224552 -0.04611745 0.065554745
-0.07422926 -0.07522662 0.031893924 -0.08600991 0.07174957 0.08697322 -0.035896614 0.0003308024
-0.025433514 0.033422478 -0.018443776 0.079386435 -0.027328763 -0.06120731 0.019037928 -0.01640109
-0.033506203 0.01043351 0.08720355 -0.042297613 -0.050199565 -0.06544858 -0.036405187 0.009943053
0.07127831 0.04942729 0.02133454 -0.04661389 -0.069752894 0.018051341 0.023292983 -0.017916242
0.014738768 0.042964146 0.036307354 -0.030385569 -0.029463684 -0.019989586 -0.029701794 0.02535128
0.024644 0.082985535 -0.074707024 0.026814196 0.03153475 0.06177411 -0.063318454 0.05883136
0.03778471 0.029468302 0.020522296 -0.08123784 0.055270474 -0.0809025 0.08807162 0.07165629
-0.070806846 -0.055997938 0.06430382 0.014657133 0.031756803 -0.06703785 0.046598352 -0.0092529
0.02696815 0.08154754 -0.056186505 -0.0036221445 0.053534742 0.0018184753 -0.09090042 -0.07112723
-0.07065906 0.0008240225 -0.030050775 0.056538664 0.058776267 0.07388657 -0.035236605 -0.011689615
0.09470545 -0.021394853 0.05260072 0.042632658 0.0033446979 0.0506541 0.029132765 -0.051793087
-0.029581694 0.012531701 -0.010280172 -0.010187408 -0.003332092 0.04901152 0.08148289 0.033126403
-0.028901098 -0.058005318 0.04625579 -0.009951708 0.012015168 -0.08627112 0.07053398 0.036012325
-0.045918345 -0.04019961 0.04076197 -0.029377159 -0.07631253 -0.046852387 -0.08220143 0.010763162
-0.010076166 0.045804705 -0.02375005 -0.03975928 -0.033062086 0.026240073 0.07068306 -0.01737648
-0.057467278 -0.07603768 0.08566295 -0.0045186174 0.063467875 0.07185888 -0.031717915 -0.02796827
-0.060474094 -0.08617605 0.08874107 -0.011087925 0.08659871 0.015042116 -0.07973353 0.020272356
00000000: 33d2 323d aa51 6b3d 1373 993d 56fe 85bd
00000010: a3cf 22bd 6c41 313d 1b4b b13a 8760 a9bd
00000020: 3665 723d c681 793d 346f a5bd aa72 36bd
00000030: 7c7c 023d fde7 df3c 96fa 26bd 304e af3d
00000040: d86c fbbc a1cf e3bc b442 603d 146a 313c
00000050: 5607 d43c f390 c73c a591 b4bc f171 a8bd
00000060: f3c8 903c 6bb0 67bd cc69 71bd 1d3a 94bd
00000070: 4136 9d3d 35fb 68bd f30b 07bd 3fc8 503d
00000080: e2a0 563d 2b0b 36bd 7b80 4c3d 69b9 8d3d
00000090: 502f 433c 2a5f 34bd dae8 b4bd f782 783d
000000a0: e531 adbd 06a2 bb3c 0e55 353c d407 14bd
000000b0: 63bd 9fbd f9a6 a4bd f6aa 163d bca7 46bc
000000c0: d22c a13d d6bd b8bc 3511 93bd fa37 98bd
000000d0: 6145 7ebd 70a0 6cbd e590 8a3c 8612 a4bc
000000e0: 1be0 11bd 1e4e 9b3d 0681 693d c14b 8c3c
000000f0: 7b68 b4bd b63b a53b d575 533d d724 a93d
00000100: 70d1 433d f18e 51bd 0bbd f9bc 11d6 773d
00000110: 435b 8d3d 75d8 bb3d a85a 733c 96a5 71bd
00000120: a8d9 343d e919 83bd 38f2 fcbc ef13 5f3d
00000130: 4f4c 4dbd d151 8abd 9883 5abc 8624 503d
00000140: 1d1e 22bd 9672 ea3c 3527 d1bc 7a99 a33c
00000150: 0919 7cbd db22 b63d 3151 8dbd f676 18bd
00000160: 29e1 e23c 879f cb3b 9c25 473c 1c2a 61bd
00000170: 26f1 97bd d665 403d fdf7 a43c 57af 373d
00000180: d02c 903c 93dd 9ebd e9c1 a1bd 65f5 883d
00000190: b775 973d 6954 1c3d 851a 9e3d 7cf6 f83c
000001a0: 76f7 66bc ead9 11bc 5331 053c 120e 5c3d
000001b0: 5509 a0bd 086d 913d 7b2f 013d 6c3a afbd
000001c0: cf05 8abd 1d0f 243c e422 32bd 20b4 93bd
000001d0: dc60 0c3c d6d0 51bd a7e5 3cbd 9141 863d
000001e0: 8305 98bd 6a10 9abd 34a3 023d f725 b0bd
000001f0: 70f1 923d 041f b23d 5408 13bd 8c6f ad39
00000200: f259 d0bc 02e6 083d 6717 97bc 5b95 a23d
00000210: 92e0 dfbc 84b4 7abd 6ef5 9b3c 945b 86bc
00000220: cd3d 09bd 50f1 2a3c c697 b23d 4340 2dbd
00000230: 0f9e 4dbd e809 86bd 9b1d 15bd 30e8 223c
00000240: 5dfa 913d 4574 4a3d c6c5 ae3c 35ee 3ebd
00000250: 9bda 8ebd 68e0 933c edd0 be3c 15c5 92bc
00000260: e07a 713c 2cfb 2f3d 05b7 143d 28eb f8bc
00000270: d35d f1bc 33c1 a3bc 2d51 f3bc 7dad cf3c
00000280: 37e2 c93c 52f4 a93d ffff 98bd 72a9 db3c
00000290: 952a 013d d906 7d3d 1bad 81bd 27f9 703d
000002a0: 24c4 1a3d 8267 f13c 601e a83c 0660 a6bd
000002b0: 4b63 623d 36b0 a5bd e55e b43d 88c0 923d
000002c0: 2e03 91bd 185e 65bd b9b1 833d 7924 703c
000002d0: 6c13 023d 244b 89bd eadd 3e3d 7a99 17bc
000002e0: 4fec dc3c 6602 a73d d223 66bd 8061 6dbb
000002f0: 3f47 5b3d e859 ee3a 002a babd 27ab 91bd
00000300: b2b5 90bd 3703 583a 0b2d f6bc 1695 673d
00000310: 62bf 703d d851 973d 4254 10bd cd85 3fbc
00000320: eef4 c13d 4244 afbc da73 573d 959f 2e3d
00000330: b832 5b3b ac7a 4f3d d6a7 ee3c fd24 54bd
00000340: 4f55 f2bc c351 4d3c 2b6e 28bc 16e9 26bc
00000350: 3a5f 5abb 4ec0 483d 80e0 a63d 8daf 073d
00000360: ffc1 ecbc fc96 6dbd b676 3d3d 7d0c 23bc
00000370: 44db 443c eaae b0bd 1f74 903d a981 133d
00000380: e014 3cbd 59a8 24bd 06f6 263d 5ea8 f0bc
00000390: be49 9cbd 4ae8 3fbd 3959 a8bd f957 303c
000003a0: 8116 25bc b79d 3b3d 778f c2bc a0da 22bd
000003b0: 1c6c 07bd 6cf5 d63c 48c2 903d 1f59 8ebc
000003c0: cf62 6bbd a5b9 9bbd 0f70 af3d e910 94bb
000003d0: 72fb 813d c02a 933d a5ea 01bd b71d e5bc
000003e0: afb3 77bd 127d b0bd e1bd b53d 21aa 35bc
000003f0: aa5a b13d 3573 763c 554b a3bd 3612 a63c

wrapper.rho.2.bias f4 [128]
0.04250133 0.06713133 -0.047297105 0.004611163 0.011125007 0.050920572 -0.0496582 -0.07417361
-0.0723989 -0.02664257 -0.021254744 0.052019652 -0.061508425 -0.04323859 0.012251175 -0.05711901
-0.0051061143 0.074734665 -0.046336666 0.08500747 0.08569341 -0.016485779 0.03678468 -0.009562016
-0.088663705 -0.039898567 -0.040480893 -0.004134161 0.072281905 0.05931171 -0.033424433 0.023234524
0.03833187 -0.08396929 0.058847293 0.00092269894 0.042847574 0.032333493 -0.02435531 -0.061375875
0.042457465 0.05567448 -0.004801186 0.035082422 0.04211736 -0.06954554 -0.08012115 0.033231817
-0.043565813 0.06600884 0.07207055 0.041039675 0.061312724 -0.030182537 -0.0711837 -0.07754605
0.083579294 -0.08420223 0.013588302 -0.057508204 -0.07557188 0.081953354 -0.049586523 -0.08492772
0.0118577 -0.055454284 -0.0044044103 0.054240312 -0.082788296 -0.0068084276 -0.045633093 0.030482821
0.0806197 0.03693054 -0.014442511 0.07761216 0.07555509 0.043459177 0.05709679 0.086066306
-0.0851931 0.06748172 -0.06541275 0.07455846 -0.029797133 -0.045767203 0.03652438 -0.04850811
0.022366371 0.06324094 -0.035243243 0.04746974 -0.022811545 0.012993231 -0.037129723 0.05015359
0.069441 0.056839935 -0.010190234 0.07724347 -0.014461606 -0.021495065 0.082842186 -0.0036169107
-0.054990716 0.02781036 0.076067135 0.04216397 -0.08397888 -0.015026975 -0.06861284 0.06990645
0.026485259 0.09204097 -0.007872263 0.03165495 -0.071422264 0.056681138 -0.010646084 0.06350322
0.08730959 0.0880929 0.01874753 -0.06940251 0.043347787 -0.016226804 -0.045761004 -0.08525996
00000000: e015 2e3d 277c 893d 9cba 41bd 3d19 973b
00000010: a945 363c 1792 503d 6666 4bbd 55e8 97bd
00000020: e045 94bd 8541 dabc 6e1e aebc 8f12 553d
00000030: 42f0 7bbd f31a 31bd 27b9 483c 9ff5 69bd
00000040: 3151 a7bb 7d0e 993d 84cb 3dbd 6518 ae3d
00000050: 0780 af3d 2f0d 87bc 88ab 163d 01aa 1cbc
00000060: 5195 b5bd ae6c 23bd 4bcf 25bd db77 87bb
00000070: 8908 943d d6f0 723d 0fe8 08bd 5456 be3c
00000080: e101 1d3d 17f8 abbd dc09 713d 47e1 713a
00000090: f080 2f3d 2070 043d c984 c7bc 4565 7bbd
000000a0: e1e7 2d3d ec0a 643d 4453 9dbb 96b2 0f3d
000000b0: 4183 2c3d e46d 8ebd 8f16 a4bd 161e 083d
000000c0: 1172 32bd a52f 873d b999 933d 3819 283d
000000d0: 0d23 7b3d 5e41 f7bc c2c8 91bd 77d0 9ebd
000000e0: 9f2b ab3d 3872 acbd 78a1 5e3c b98d 6bbd
000000f0: 6ec5 9abd 29d7 a73d 3d1b 4bbd 96ee adbd
00000100: cc46 423c 0824 63bd df52 90bb 172b 5e3d
00000110: e98c a9bd 3b19 dfbb c4e9 3abd 1cb7 f93c
00000120: f11b a53d 7a44 173d 48a0 6cbc 20f3 9e3d
00000130: a1bc 9a3d 4002 323d 53de 693d 8843 b03d
00000140: b879 aebd db33 8a3d 1ff7 85bd 1bb2 983d
00000150: 1e19 f4bc 6476 3bbd 979a 153d 71b0 46bd
00000160: ae39 b73c 7784 813d 385b 10bd a16f 423d
00000170: 47df babc 90e1 543c 5615 18bd da6d 4d3d
00000180: 1537 8e3d fed0 683d f0f4 26bc d331 9e3d
00000190: 5ff0 6cbc 6b16 b0bc 2aa9 a93d b109 6dbb
000001a0: f23d 61bd 8dd2 e33c 16c9 9b3d 21b4 2c3d
000001b0: 1efd abbd b433 76bc e384 8cbd 1d2b 8f3d
000001c0: 9df7 d83c fa7f bc3d aafa 00bc 9fa8 013d
000001d0: d645 92bd 7b2a 683d ea6c 2ebc fa0d 823d
000001e0: 5fcf b23d 0d6a b43d 6c94 993c e722 8ebd
000001f0: 738d 313d 13ee 84bc e46f 3bbd c69c aebd

wrapper.rho.4.weight f4 [2, 128]
0.022847846 -0.05581603 0.036319427 0.06203112 0.040532243 -0.03784854 0.07612665 -0.037409365
0.056229226 -0.07695958 -0.10739043 -0.05155003 0.039885167 -0.08444911 -0.04295216 -0.0126051875
0.068680584 -0.069426805 -0.07323561 0.07966055 0.050201476 -0.016367104 -0.0067340466 -0.029490994
0.025164545 0.03829125 -0.020299388 0.01595756 0.0041206204 -0.046508085 0.01627643 -0.033928484
-0.082379974 -0.054845635 -0.0023155005 -0.07448088 -0.03361483 -0.018323123 -0.08080973 -0.01053351
-0.07899591 -0.017037347 0.06020559 0.048171226 -0.046822872 0.076861456 -0.037223462 -0.055050977
-0.05821453 0.010204548 0.022080444 0.012376531 -0.08261101 0.03047328 0.070250675 0.053886864
0.032293916 0.00790134 -0.008666813 -0.07750352 0.061060134 0.037630767 -0.029350141 0.036999412
-0.043899454 -0.06706803 0.0024879465 0.07788135 0.04682931 -0.061549995 0.078246 0.013161475
0.011147672 -0.07251961 0.02878566 0.074375324 -0.10853336 -0.084000595 0.07975028 0.05655037
0.017081209 0.058433145 -0.0438022 -0.028774923 0.07630579 -0.070634805 -0.083004594 -0.0020475753
-0.08422969 -0.08220009 -0.05633162 0.035827816 0.045070756 -0.07242289 0.032978944 0.04146615
-0.071796 0.04178487 -0.056056216 0.08664826 0.06302683 -0.0025929858 0.072624974 -0.021286525
0.07668199 0.07853673 0.001398103 0.049496867 0.041335236 0.013444848 0.015433422 -0.04294179
0.07964832 -0.033041295 0.018934272 0.030914739 -0.024877122 -0.019293629 0.046489812 -0.0846849
0.06141559 0.015324164 0.014351282 -0.055562355 0.04872657 -0.059496656 -0.08370871 -0.07184692
-0.05472765 0.018769817 0.0031840834 0.058240145 0.0094614485 0.02741627 -0.020220583 -0.0519462
0.020442495 0.011819411 -0.03714489 -0.023394775 -0.06604768 -0.08502878 -0.051339436 0.02208483
0.071985886 0.06296775 0.042065095 0.071027815 0.068591364 0.053973008 -0.03909034 -0.0066814655
-0.08174268 -0.09023149 -0.027327433 0.0025574195 -0.010016964 -0.012011885 0.017604386 0.004029797
0.021273809 -0.09186337 -0.04748808 0.004937079 -0.083374254 -0.053771097 0.044306375 0.07478527
-0.019027652 0.083372325 -0.058380757 -0.04357516 0.057712965 0.071286395 -0.038273357 -0.0033526758
-0.049179193 0.013582899 0.0035692013 -0.06647019 0.022087466 -0.004779296 -0.008157164 0.052890953
0.052710705 0.08672812 0.047829024 -0.046718396 -0.06748746 -0.07266182 -0.054328043 -0.073327534
-0.009118542 0.0559305 -0.0051191784 -0.036488682 -0.06340322 -0.055330925 -0.0598337 -0.031821433
-0.033826236 -0.03287648 -0.016728638 -0.01856866 0.07095041 0.06468039 0.00629246 0.047246158
-0.017348975 0.036375236 0.01265672 -0.07138787 0.061330378 -0.08437633 0.057027716 0.031401068
0.06117605 0.0037493089 0.04300501 0.04663662 -0.02274252 0.010921252 0.04216347 -0.027917104
0.07261484 0.07100231 0.086974196 0.013946245 0.017910881 -0.05289029 -0.101705045 -0.04125893
-0.06616506 -0.0388539 -0.03541164 0.07270264 0.05322568 0.052638177 0.08392738 -0.073660865
0.06556198 -0.09107543 -0.08653349 -0.008118547 0.07435186 0.0027031708 0.058764566 0.05344598
-0.03594117 -0.091666155 0.080622464 0.063443884 -0.10146343 -0.05896375 0.06758434 -0.053189304
00000000: 682b bb3c 599f 64bd aec3 143d 5814 7e3d
00000010: 2305 263d 1207 1bbd 4ae8 9b3d 903a 19bd
00000020: 9e50 663d fc9c 9dbd 84ef dbbd 2026 53bd
00000030: a15e 233d a8f3 acbd 9bee 2fbd fd85 4ebc
00000040: 68a8 8c3d a42f 8ebd 8dfc 95bd 1225 a33d
00000050: 10a0 4d3d 4e14 86bc 47a9 dcbb 1997 f1bc
00000060: e025 ce3c 49d7 1c3d e74a a6bc 6eb9 823c
00000070: 4506 873b 437f 3ebd 2656 853c 98f8 0abd
00000080: d5b6 a8bd d1a5 60bd a7bf 17bb 6e89 98bd
00000090: b4af 09bd 601a 96bc 927f a5bd be94 2cbc
000000a0: 9cc8 a1bd e891 8bbc 239a 763d 314f 453d
000000b0: 57c9 3fbd 8a69 9d3d a177 18bd 227d 61bd
000000c0: 5c72 6ebd fa30 273c 0ce2 b43c efc6 4a3c
000000d0: f62f a9bd 1aa3 f93c 96df 8f3d 79b8 5c3d
000000e0: a046 043d 9f74 013c 40ff 0dbc 2aba 9ebd
000000f0: 311a 7a3d b822 1a3d b56f f0bc b28c 173d
00000100: eacf 33bd f75a 89bd d10c 233b 4280 9f3d
00000110: 17d0 3f3d d91b 7cbd 703f a03d 3aa3 573c
00000120: baa4 363c 2985 94bd e8cf eb3c 1752 983d
00000130: bd46 debd 8108 acbd 1d54 a33d 5ca1 673d
00000140: e4ed 8b3c 9857 6f3d f069 33bd 63b9 ebbc
00000150: 3646 9c3d fba8 90bd 50fe a9bd 9d30 06bb
00000160: 9e80 acbd 8558 a8bd fcbb 66bd 30c0 123d
00000170: 1d9c 383d 7452 94bd ee14 073d 69d8 293d
00000180: c809 93bd 9d26 2b3d 349b 65bd a574 b13d
00000190: 3614 813d 15ef 29bb 67bc 943d 1461 aebc
000001a0: 720b 9d3d ddd7 a03d 8d40 b73a 3abd 4a3d
000001b0: 234f 293d c847 5c3c 77dc 7c3c bbe3 2fbd
000001c0: a91e a33d 4f56 07bd 0c1c 9b3c e840 fd3c
000001d0: 1bcb cbbc ac0d 9ebc 1a6c 3e3d 476f adbd
000001e0: ea8e 7b3d 3412 7b3c a421 6b3c 5a95 63bd
000001f0: 8395 473d c4b2 73bd 796f abbd 7a24 93bd
00000200: 1a2a 60bd 29c3 993c 0eac 503b 388d 6e3d
00000210: 3104 1b3c 1698 e03c a3a5 a5bc 8ac5 54bd
00000220: 0577 a73c 34a6 413c 3d25 18bd 66a6 bfbc
00000230: 0244 87bd 9223 aebd 4d49 52bd 3feb b43c
00000240: 566d 933d 3cf5 803d 734c 2c3d 0877 913d
00000250: a179 8c3d cd12 5d3d 311d 20bd 32f0 dabb
00000260: b568 a7bd 4acb b8bd c8dd dfbc 619a 273b
00000270: 311e 24bc 7fcd 44bc 1337 903c 630c 843b
00000280: 6946 ae3c dd22 bcbd dc82 42bd 38c7 a13b
00000290: 1fc0 aabd 153f 5cbd 9a7a 353d 0529 993d
000002a0: e1df 9bbc 1cbf aa3d a920 6fbd de7b 32bd
000002b0: 6e64 6c3d 9afe 913d 86c4 1cbd 91b8 5bbb
000002c0: 1f70 49bd cf8a 5e3c 43e9 693b 8621 88bd
000002d0: c6f0 b43c a49b 9cbb a0a5 05bc 2fa4 583d
000002e0: 2ee7 573d 839e b13d 5ee8 433d ca5b 3fbd
000002f0: de36 8abd b8cf 94bd 1587 5ebd bf2c 96bd
00000300: f065 15bc 6117 653d c8be a7bb 2875 15bd
00000310: 8cd9 81bd aea2 62bd 2f14 75bd 3157 02bd
00000320: 618d 0abd 7da9 06bd 7f0a 89bc 4d1d 98bc
00000330: 734e 913d 2777 843d fb30 ce3b 3085 413d
00000340: 701f 8ebc 33fe 143d 225e 4f3c ce33 92bd
00000350: 9035 7b3d 7fcd acbd e595 693d 689e 003d
00000360: bd93 7a3d f7b6 753b 0526 303d 0a06 3f3d
00000370: 854e babc 0def 323c 9ab3 2c3d 69b2 e4bc
00000380: 17b7 943d a969 913d 871f b23d cb7e 643c
00000390: d7b9 923c 7da3 58bd bc4a d0bd 20ff 28bd
000003a0: 8c81 87bd 4425 1fbd cc0b 11bd 1fe5 943d
000003b0: 2c03 5a3d 219b 573d 1ee2 ab3d 82db 96bd
000003c0: 5c45 863d c185 babd 7838 b1bd a703 05bc
000003d0: ca45 983d ae27 313b 1db3 703d 2cea 5a3d
000003e0: 0c37 13bd 77bb bbbd 641d a53d deee 813d
000003f0: 0fcc cfbd f983 71bd a969 8a3d 07dd 59bd

wrapper.rho.4.bias f4 [2]
-0.085844494 0.03911229
00000000: 3dcf afbd 3534 203d
